model/model_upyp_NNPC.pt (torch, 10427 bytes, 5 tensors)

weight f4 [9, 1]
-1.7331711 -1.181297 -1.0119414 -1.3248861 0.00357465 -0.06931088 0.75878674 1.0373266
-0.040466286
00000000: 8dd8 ddbf bd34 97bf 4c87 81bf de95 a9bf
00000010: ad44 6a3b ddf2 8dbd d93f 423f 1ec7 843f
00000020: fabf 25bd

bias f4 [9]
0.6446577 0.44420162 0.8114676 -0.11477225 0.00034558916 -1.019677 -0.54681295 -0.83248395
0.032448184
00000000: 4908 253f 656e e33e 57bc 4f3f b70d ebbd
00000010: 3130 b539 c784 82bf effb 0bbf ab1d 55bf
00000020: 63e8 043d

weight f4 [9, 9]
0.33920342 0.3420902 1.532055 -0.460568 -0.009150865 -0.6611059 -0.8696923 -1.5620971
0.009056188 0.10235187 -0.13865374 -0.38054878 -0.049499076 0.024960186 -0.07284351 -0.39059353
-0.13184954 -0.22443147 -1.4570347 -0.93689615 -1.225578 -0.15073588 0.0058061723 -0.0055699227
0.9089701 1.2169595 -0.024839427 -1.779854 -1.4017261 -0.45803237 -0.71219665 -0.013410188
-0.195037 0.36479867 0.6141236 0.09605784 0.25815898 -0.1443054 -0.12549177 0.0072633657
0.017816765 -0.18063675 0.37019044 -0.21960275 -0.030407893 0.015686449 -0.13724628 -0.1627049
0.008634687 -0.010783262 0.15023775 -0.20008461 -0.10266431 0.2531997 -0.14399044 -0.034425464
0.14596143 0.04970581 0.07503734 0.078235164 -0.32019833 0.19098225 -0.0799991 -0.09637811
-0.2365652 -0.107026584 0.24143155 -0.013537826 -0.0024792487 -0.3322968 -0.09604072 0.005183786
-0.17384857 0.031513385 -0.09036403 0.19688837 -0.016572146 -0.029809201 -0.21450321 -0.02334013
-0.062271148
00000000: 12ac ad3e 7226 af3e 611a c43f 92cf ebbe
00000010: 82ed 15bc 3c3e 29bf 28a4 5ebf ccf2 c7bf
00000020: 6860 143c db9d d13d 3ffb 0dbe 4ad7 c2be
00000030: 8bbf 4abd 4e79 cc3c fa2e 95bd e0fb c7be
00000040: 9103 07be 5dd1 65be 1d80 babf 6dd8 6fbf
00000050: bddf 9cbf 825a 1abe b441 be3b e683 b6bb
00000060: 44b2 683f 54c5 9b3f 0e7c cbbc 42d2 e3bf
00000070: c36b b3bf 3883 eabe 8552 36bf 68b6 5bbc
00000080: c8b7 47be e4c6 ba3e 3437 1d3f f9b9 c43d
00000090: 6a2d 843e cbc4 13be ea80 00be 8701 ee3b
000000a0: 77f4 913c d7f8 38be 9a89 bd3e 8bdf 60be
000000b0: f919 f9bc de80 803c 4a8a 0cbe 1d9c 26be
000000c0: 8178 0d3c 47ac 30bc edd7 193e fbe2 4cbe
000000d0: aa41 d2bd 64a3 813e 3b72 13be b701 0dbd
000000e0: ea76 153e 5298 4b3d 2dad 993d c239 a03d
000000f0: 09f1 a3be da90 433e 91d6 a3bd e361 c5bd
00000100: 263e 72be c130 dbbd d539 773e c2cd 5dbc
00000110: e47a 22bb ce22 aabe ffb0 c4bd c0dc a93b
00000120: 5c05 32be 2e14 013d c710 b9bd 1b9d 493e
00000130: 4fc2 87bc 6d32 f4bc bba6 5bbe cd33 bfbc
00000140: 0810 7fbd

bias f4 [9]
0.2461277 -0.078947775 0.08454267 0.36594522 -0.07264336 0.08836379 0.024511049 0.04839631
0.056576703
00000000: e608 7c3e 5faf a1bd b524 ad3d 2c5d bb3e
00000010: 0bc6 94bd 13f8 b43d 65cb c83c 363b 463d
00000020: f9bc 673d

weight f4 [1, 9]
0.17836261 0.0007006504 0.20072292 0.22324187 0.0036627334 -0.0010915599 -0.001650199 0.00082096795
0.0009110207
00000000: b0a4 363e daab 373a 4f8a 4d3e 8499 643e
00000010: 780a 703b ac12 8fba 7d4b d8ba 3a36 573a
00000020: 90d1 6e3a
