model/model_upyp_NNWC.pt (torch, 10529 bytes, 5 tensors)

weight f4 [9, 1]
000000 23 99 d7 bf f4 e9 76 bf 07 6c 85 bf a6 d4 81 be
       -1.6843609 -0.96450734 -1.0423592 -0.2535755
000010 67 22 c8 3e 21 52 1a 3f dc 14 48 3f d6 40 8e 3f
       0.39088747 0.6028157 0.7815683 1.1113536
000020 08 59 c2 3e
       0.3795855

bias f4 [9]
000000 29 37 3d 3f ce d5 85 3e 68 46 ef 3e b4 f3 c5 3d
       0.7391229 0.26139683 0.46733403 0.09665623
000010 04 a8 2d be 43 7a 86 be 5f d3 b2 be 13 f4 0c bf
       -0.16958624 -0.26265153 -0.34926888 -0.5505993
000020 3c 5b 24 3f
       0.6420171

weight f4 [9, 9]
000000 ab 0a 0b be 3a 0a 22 3c ef 28 be 3d 90 c3 9a be
       -0.13578288 0.0098901335 0.09285151 -0.30227327
000010 6a 21 99 3e 0f cb ce be b8 13 e7 bc c2 f7 0f be
       0.29908305 -0.40389296 -0.028207645 -0.14059356
000020 83 e6 7c 3c 7c fd c4 ba d6 34 71 be e6 90 9c be
       0.015435818 -0.0015029158 -0.23555312 -0.305793
000030 1e 55 10 be 28 35 93 3e a7 e0 0a be 5a fd 98 be
       -0.1409497 0.28751493 -0.1356226 -0.29880792
000040 60 e1 58 be 00 89 2f be 99 9d 85 be ee e6 27 be
       -0.21179724 -0.17142105 -0.260968 -0.16396686
000050 c3 51 96 bd 13 a1 74 3e 22 e8 a1 be fa 5c 95 3d
       -0.073398136 0.2388957 -0.31622416 0.072931245
000060 44 9b b8 be 6b f5 8a be e6 4f 92 bc 4c 62 d0 bf
       -0.36055958 -0.27140364 -0.017860364 -1.6279998
000070 7a 6a 15 bf b3 13 c9 be 9f c2 89 3c 3b 8c 0c 3e
       -0.58365595 -0.39272842 0.016816435 0.13725369
000080 43 28 eb 3d 12 4b 7a 3e 2f 2d 14 3f e6 9d 84 3e
       0.11482289 0.244427 0.57881445 0.25901717
000090 03 f6 6a 3e 7f 12 a6 bd da 0c d3 bd 88 18 73 3d
       0.22945409 -0.081089966 -0.103051856 0.059349567
0000a0 fa 16 2a 3e 28 f1 8f be 35 72 d8 3e 5f 74 84 3d
       0.16610327 -0.28113675 0.42274633 0.064675085
0000b0 67 80 9b bd f8 ad 48 3e 8a 7d 0f bb 29 15 9f be
       -0.0759285 0.19597614 -0.0021894895 -0.3107083
0000c0 29 e8 f2 3d 5f 5f 5d be 9e 0b 8f 3e 16 4a 00 bd
       0.11860687 -0.21618412 0.2793855 -0.031320654
0000d0 80 a8 13 3d 9f 57 04 3e ae 6e f1 be 63 7d 57 bd
       0.036049366 0.1292405 -0.47154754 -0.052609812
0000e0 c6 52 c6 be 2c 32 96 3d 79 ee f0 3e 0c e2 b8 3e
       -0.38735026 0.07333788 0.4705694 0.3610996
0000f0 51 20 14 3f 61 1e 68 3f c4 5a cf be 6c 57 44 be
       0.5786181 0.90671355 -0.40498936 -0.19173974
000100 aa f3 a2 be 16 d2 7d 3d ed 3d 5f 3e e9 b5 a0 bd
       -0.31826526 0.06196793 0.21800967 -0.078471966
000110 41 28 c6 3d 12 0c 55 be c7 35 4f be 89 10 3d bd
       0.096756466 -0.20805386 -0.20235358 -0.046158347
000120 9b a1 e5 bd af 64 9d bc 8b d5 4e bd 69 2c 87 3e
       -0.112124644 -0.019213049 -0.05049662 0.2640107
000130 fb a6 4c be f1 d4 a8 bc 06 c0 1f be 73 ef 14 bd
       -0.19985573 -0.02060935 -0.15600595 -0.03636117
000140 0e e1 9d 3c
       0.019272354

bias f4 [9]
000000 2e 7c 6a bc 49 8e 62 3d a3 93 28 bd a7 6c 37 bb
       -0.014311833 0.055311475 -0.041156422 -0.0027988346
000010 49 3b 3b 3d 85 2b b3 bd 9f db 9a be 69 22 4a bd
       0.045710836 -0.08748535 -0.30245683 -0.049349222
000020 ba c5 80 bc
       -0.015719283

weight f4 [1, 9]
000000 aa db 0d ba ae 7d c0 3b f6 ec dd 3b 38 ef 0a 3f
       -0.00054114556 0.005874357 0.0067726327 0.5427127
000010 a4 ba 96 ba 8b 79 ac 3a 29 13 46 be 00 6b eb 3b
       -0.0011499715 0.0013158781 -0.19343247 0.0071843863
000020 b4 e0 9f 3a
       0.0012197704
