model/Tau_NNPC.pt (torch, 12955 bytes, 7 tensors)

weight f4 [9, 2]
00000000: 2e23 21bf 7342 2bbf 47cf 70be 2c9d 5bbf
00000010: ba06 c83d ca60 85bf 6897 f73e cc73 0f3e
00000020: d0d8 c53b 03f6 3f3f 75f5 7d3d c341 e83e
00000030: 1fbb c7be cbe4 66be 371a 12bf 0a9a 13be
00000040: a7de ddbe d0bd 843f
-0.62944305 -0.6689827 -0.2351657 -0.857867 0.09766908 -1.0420163 0.483577 0.14009017
0.006037809 0.7498476 0.062001664 0.45362672 -0.3900995 -0.22548215 -0.5707125 -0.1441423
-0.43333933 1.0370426

bias f4 [9]
00000000: 252c 063f 9ab6 f53e 2a12 063e 91ed 04bf
00000010: c4d0 4a3f 5e0a 27bf 86b3 d8be 1142 fbbe
00000020: ca1f 62bd
0.5241111 0.47990876 0.13092867 -0.51925 0.792248 -0.65250194 -0.42324466 -0.49073842
-0.055206098

weight f4 [8, 9]
00000000: 03b0 343d 03a3 e1be f89b 16bf 1cc5 45be
00000010: b3e0 483e ba54 1bbe de8f 74be 36a0 5dbe
00000020: bb81 0d3e ca94 8ebd a743 f3be c7bd 15bf
00000030: f263 13be 733e 1e3e f61a 2fbd 6475 91bd
00000040: bcfe 6dbe 3ff7 053f 07b8 c6be 02ba ebbe
00000050: 7efe a8bf c776 5bbe 0686 073f 4dd1 aa3d
00000060: b478 9ebe fd6f 4dbe caa6 713f 35b1 6b3e
00000070: 911d 103e a1c0 003d 3a04 9b3e 4f36 ed3d
00000080: 2c5c 27be 9887 693e d624 503c 6d26 bdbe
00000090: b102 e03d 1f83 4dbc 426e 21be 3c70 01be
000000a0: 47ee 12be 88c1 403c fc0a 0e3d 92bd 2bbd
000000b0: ce76 203e 29f2 47be d5f4 05bd e879 083e
000000c0: 088f 263e 1cf4 6e3c 01a1 a03e 8dcd fa3d
000000d0: ae65 883e 2f84 71be 57fd 00bf 7529 e9be
000000e0: 2677 b8bd a8eb c63e fc8f b1be 087f 633e
000000f0: c362 67be c23e 22be eb4a 12bd 574d 0cbe
00000100: 4679 ab3d 676b 51be 994c b03e fd86 913c
00000110: b0b2 0a3e 4d58 61be 05c8 433e b20f fdbd
0.04411317 -0.4406968 -0.5883174 -0.19313473 0.19616966 -0.1516904 -0.23883006 -0.21643147
0.1381902 -0.06961973 -0.47512552 -0.584927 -0.14393595 0.1545351 -0.04275032 -0.071024686
-0.23241705 0.5233039 -0.38812277 -0.4604035 -1.3202665 -0.21432029 0.5293888 0.08340702
-0.30951464 -0.20062251 0.94395125 0.23016818 0.14073779 0.031433705 0.30276662 0.11582624
-0.16343755 0.22805631 0.012704095 -0.3694338 0.10938013 -0.012543469 -0.15764716 -0.1264047
-0.14348708 0.011764891 0.034678444 -0.041928835 0.1567032 -0.1952597 -0.032704193 0.13327754
0.162655 0.014584567 0.31372836 0.12246237 0.26640075 -0.2358558 -0.50386566 -0.45539442
-0.09007101 0.38851666 -0.34680164 0.22216427 -0.22596268 -0.15844253 -0.03571598 -0.13701378
0.083727404 -0.20451127 0.3443344 0.017764563 0.13544726 -0.2200634 0.1911927 -0.12356509

bias f4 [8]
00000000: eba8 51be 9731 f43d d4f9 9d3e a8cf ee3c
00000010: 263d c73b 6d50 aa3c 75e7 51be c34d 04be
-0.20474593 0.11923521 0.30854666 0.029151753 0.0060802875 0.020790303 -0.2049845 -0.12920289

weight f4 [5, 8]
00000000: 8cf6 84bd 0046 a83d 55fd 7bbe 9e32 803e
00000010: 28c5 6f3d 57c8 9abe 712c cabe cd6e a2be
00000020: 7f04 90be 1362 093e 0e72 983e 8d79 e83d
00000030: ea02 373e c50c 493d 5d98 febe 9b93 d6be
00000040: fbce 5bbe a553 11bf c6ae 8cbe a642 603e
00000050: e479 5dbd 4518 b9bc b180 983a 60a6 a93e
00000060: 8ba7 4ebd daba 773e ff51 70bd b9f3 86be
00000070: 218f f13d ae65 3c3e 4360 8f3e 39c1 82be
00000080: 66af 9d3b 773b dabe 220e cebc d597 1d3d
00000090: b5d1 703d a4de 12be 1ff4 01be 1088 a93c
-0.064923376 0.082164764 -0.24608357 0.25038618 0.058537632 -0.30230972 -0.3948703 -0.3172516
-0.2812843 0.13416319 0.29774517 0.11351309 0.17872205 0.049084444 -0.4972562 -0.4190949
-0.21465676 -0.56768256 -0.27477092 0.21900424 -0.054071322 -0.02259458 0.0011635033 0.33134747
-0.05045275 0.24192372 -0.058671948 -0.2635782 0.11794878 0.18398163 0.2800313 -0.25538042
0.004812169 -0.42623493 -0.025153223 0.038474876 0.058793742 -0.14342743 -0.12690781 0.020694762

bias f4 [5]
00000000: b63d 6dbe b89e 8a3e 0722 b23e 1374 9ebe
00000010: 7518 cf3e
-0.23168072 0.27074218 0.34791586 -0.30947933 0.40448347

weight f4 [1, 5]
00000000: 0e1c c83c 3d9b d33e d03b 0e3f f90e f4be
00000010: e2b1 ee3e
0.02442744 0.41329375 0.55560017 -0.47667673 0.4662009
